model_target.pt (torch, 3535 bytes, 4 tensors)

fc1.weight f4 [64, 4]
0	0x3f48cb0f	0.7843484
1	0x3e4b5b74	0.19859105
2	0xbc1793a1	-0.009251506
3	0xbd2daa25	-0.04239859
4	0x3f62469a	0.8838898
5	0xbe350809	-0.17678846
6	0xbe9ebe55	-0.31004587
7	0xbea13164	-0.31482995
8	0x3f71d585	0.9446643
9	0xbdd32974	-0.10310641
10	0x40f9c95d	7.8058305
11	0x3f9071b5	1.1284701
12	0x3f2ae507	0.6675572
13	0x3e4cd617	0.20003544
14	0xbf6e88b2	-0.9317733
15	0xbc2bdba0	-0.010489374
16	0x3eaf5603	0.3424531
17	0x3e8861b7	0.2663705
18	0xbef1df53	-0.47240695
19	0x3a622731	0.0008627056
20	0xbf0c0ae4	-0.5470412
21	0xbea2975a	-0.31756097
22	0x3f910fff	1.1333007
23	0xbdd9e3c3	-0.10639145
24	0xbf9dbf40	-1.232399
25	0xbea01741	-0.3126774
26	0xc0fbc045	-7.8672204
27	0xc06e3395	-3.7218983
28	0xbf39277d	-0.7232588
29	0xbf99b996	-1.2009761
30	0xc0ec9f06	-7.394412
31	0xbc9ceb89	-0.01915528
32	0xc0b1c88e	-5.555732
33	0x3f4f68d8	0.81019354
34	0x3f9e8a18	1.2385893
35	0xbe114efc	-0.14190286
36	0xbf958312	-1.1680624
37	0xbfd86d1c	-1.6908298
38	0xc10d5d91	-8.835343
39	0xbe4f8e8d	-0.20269223
40	0x40048050	2.0703316
41	0xbf60cf25	-0.8781608
42	0x4089e381	4.3090215
43	0xbd72894f	-0.05921298
44	0xbec4d791	-0.38445714
45	0xbf0b4666	-0.54404294
46	0x402e03c8	2.7189808
47	0xbdfb3e4f	-0.12267744
48	0x3f56fce9	0.8397966
49	0x3f3374f0	0.7010031
50	0x406fcf0c	3.7470121
51	0x3f12d4d6	0.5735601
52	0xc091bfac	-4.5546474
53	0x3fcad4ce	1.5846193
54	0xc02b4b6c	-2.6764784
55	0xbf841555	-1.031901
56	0x3f805bc6	1.0028007
57	0xbd82ae42	-0.06380893
58	0x3f725673	0.9466316
59	0xbeffb6bf	-0.49944112
60	0x3ea4d820	0.3219614
61	0x3ecdd1bf	0.40199086
62	0x40e7e4cd	7.24668
63	0x3c372856	0.01117905
64	0x3eeac7a8	0.4585545
65	0xbcca2291	-0.024674686
66	0x4038116f	2.876064
67	0x3f888a7a	1.066726
68	0xbe916d6f	-0.28403804
69	0x3e74e437	0.23915182
70	0xc0a402c6	-5.1253386
71	0xbb463944	-0.0030246535
72	0xc09cb666	-4.8972654
73	0x3faf0b56	1.3675334
74	0xbea1280a	-0.3147586
75	0xbf0b006d	-0.54297525
76	0xbe23a212	-0.15979794
77	0x3f002cb0	0.5006819
78	0xc00c000b	-2.1875026
79	0x3f8370d5	1.0268809
80	0x3f29f51a	0.6638962
81	0x3e80cf41	0.25158122
82	0xbf2b9732	-0.6702758
83	0x3c8e9564	0.01740522
84	0xbfa87714	-1.316134
85	0x3f104934	0.563617
86	0x4049b058	3.1513882
87	0xbd5c2e5d	-0.053755153
88	0xbdb5c3f3	-0.08875265
89	0x3d83fb37	0.064444
90	0xbfd73d1e	-1.6815526
91	0xbe0e097f	-0.1387081
92	0x400e5cf2	2.224423
93	0x3ec8f36e	0.39248222
94	0xc0c6d611	-6.213631
95	0xbef2a077	-0.4738805
96	0xc0aeb4af	-5.459556
97	0xc01ba58a	-2.4319787
98	0x41060de6	8.378393
99	0xbcf67920	-0.030087054
100	0x3cafd80c	0.021465324
101	0x3d6850f4	0.056717828
102	0xbf319ee7	-0.6938309
103	0xbca69bef	-0.020338027
104	0xbf2ae70d	-0.66758806
105	0xbf137256	-0.5759634
106	0xc04ae604	-3.170289
107	0x3e402361	0.18763496
108	0xbfe901b0	-1.820364
109	0xbefa9af3	-0.48946342
110	0xc10cf531	-8.809861
111	0xbf0c60fd	-0.5483549
112	0xc07a277f	-3.9086607
113	0xbfcba320	-1.5909157
114	0x3f8f81e1	1.1211511
115	0x3e8c0d60	0.27353954
116	0xbf971fce	-1.1806581
117	0x3ea79e73	0.32738075
118	0xc0dff0df	-6.998153
119	0xc04a03bf	-3.1564786
120	0x3f29eaff	0.663742
121	0x3f02fad6	0.51163995
122	0x40add724	5.4325123
123	0xbf2bfd85	-0.67183715
124	0x3ea68590	0.32523775
125	0x3e8a96b5	0.27068105
126	0x40b800cf	5.7500987
127	0x3ee16d14	0.44028533
128	0xbfa740c4	-1.306664
129	0x3f54b990	0.83095646
130	0xc10ee8c7	-8.93183
131	0x3fb55a79	1.4168235
132	0x3e5701fb	0.20996849
133	0x3e930ae0	0.28719234
134	0xbf01e815	-0.50744754
135	0xbc179e43	-0.009254041
136	0x3f1f6964	0.6227019
137	0x3e42e7fa	0.19033805
138	0xbf5ce1a7	-0.8628182
139	0xbcde7ec9	-0.027160065
140	0xbfeccc9e	-1.8499944
141	0xbf5f14a3	-0.87140864
142	0xc0c28d7b	-6.0797706
143	0xbf8723d1	-1.0557805
144	0x3f7b5fe7	0.9819321
145	0x3f33d1a8	0.70241785
146	0x408077c5	4.0146203
147	0x3facc760	1.3498344
148	0xc0537b88	-3.3044147
149	0x3fa944b6	1.3224094
150	0xc0a4cc61	-5.1499486
151	0xbf908740	-1.1291275
152	0x3efa5592	0.4889341
153	0x3da0a632	0.07844199
154	0x40f8c5c7	7.7741427
155	0x3d322983	0.04349662
156	0xbe1d9aed	-0.15391131
157	0xbe47366e	-0.19454357
158	0xc044d42f	-3.0754507
159	0xbd183b6d	-0.037166048
160	0xc0577720	-3.3666458
161	0x3f2933eb	0.66094846
162	0xbdf25bb4	-0.11833897
163	0x3f6062a2	0.876505
164	0x3fdba523	1.7159771
165	0x3e84830e	0.25881237
166	0x3f8bba64	1.0916257
167	0xbf0c5e36	-0.54831254
168	0xbf545b0e	-0.8295144
169	0x3f0899a0	0.53359413
170	0xbe3b63ec	-0.18299836
171	0x3dc9c582	0.09852125
172	0x3e992bde	0.2991628
173	0x3dc28eb9	0.094998784
174	0xbf0371bc	-0.5134542
175	0xbe9031e4	-0.28163064
176	0x3f08af8c	0.53392863
177	0xbc546aa2	-0.012964876
178	0x40c67946	6.202304
179	0x3f5d3f59	0.86424786
180	0xbffac895	-1.9592463
181	0x3eedc823	0.46441755
182	0xc0e9d377	-7.3070636
183	0xc0ab4e2b	-5.353292
184	0xbecf8b2a	-0.4053586
185	0xbf1d52b7	-0.6145434
186	0xc040a1de	-3.0098796
187	0x3d18cca4	0.037304536
188	0xbfa4fe0e	-1.2890031
189	0xbd69ebd1	-0.057109658
190	0xc084362b	-4.1316123
191	0xc07f05a2	-3.9847188
192	0xc05580a0	-3.3359756
193	0x3e9d627c	0.307392
194	0xc03268ca	-2.7876458
195	0xbf2aff84	-0.66796136
196	0x3f09b4eb	0.53791684
197	0x3e69709a	0.2279686
198	0x409db8be	4.9288015
199	0x3fc4ac64	1.536511
200	0x400d85a7	2.2112825
201	0x3f980f32	1.1879637
202	0xc0e5cf52	-7.1815577
203	0xbdac70f5	-0.08419982
204	0xbfadb4e4	-1.3570828
205	0xbe87601b	-0.2644051
206	0xc11016be	-9.005552
207	0x3efe5f11	0.49681905
208	0x3f3b2d4b	0.73115987
209	0xbedcc752	-0.4312082
210	0xbf671646	-0.9026836
211	0xbff7c816	-1.9357936
212	0x3efbe938	0.4920137
213	0xbef0a8b9	-0.47003725
214	0x3f1fc387	0.62407726
215	0x3f0ab578	0.5418315
216	0x3f7091fb	0.9397275
217	0xbe0ec5dd	-0.13942666
218	0x401822a8	2.3771152
219	0x3f1c6604	0.61093163
220	0xc071eba0	-3.7800064
221	0x3fe07e32	1.7538512
222	0xbfac57e5	-1.3464323
223	0xbea725e8	-0.32646108
224	0x3fe0027f	1.7500762
225	0x3d521442	0.05128885
226	0xbd8644ee	-0.06556116
227	0x3e3e5030	0.18585277
228	0x3e298b75	0.16557105
229	0x3e70d364	0.23518139
230	0x40a7d77d	5.2450547
231	0xbd5e952b	-0.054341476
232	0xbfff1f78	-1.9931479
233	0x3e03aaac	0.12858075
234	0xc08dbca4	-4.4292774
235	0xc06e5075	-3.7236607
236	0x3e079e45	0.13243969
237	0x3e8abecb	0.27098688
238	0x3fa9a275	1.3252703
239	0xbe454d74	-0.19267827
240	0xc001758d	-2.0227997
241	0x3f1f0f8d	0.62133104
242	0xc13225a0	-11.134186
243	0xbedbdaf1	-0.42940477
244	0xbfa0c745	-1.2560812
245	0x3aba9afa	0.001423686
246	0xc1249607	-10.286628
247	0xbf4c5a41	-0.79825217
248	0x3eb96a31	0.3621383
249	0x3fac1e95	1.3446833
250	0xc0047c14	-2.0700731
251	0x3e9ae02f	0.30249164
252	0x3e92e340	0.28689003
253	0x3f8857ec	1.0651832
254	0xc023e09a	-2.5605836
255	0xc0e729d7	-7.2238574

fc1.bias f4 [64]
0	0xc2383825	-46.05483
1	0xc25d3ac2	-55.30738
2	0x4111db3f	9.116027
3	0xc220acdb	-40.168804
4	0xc22b4675	-42.818806
5	0x424ef152	51.735664
6	0x419a38a0	19.277649
7	0xc1c5f755	-24.745768
8	0x4234ae5c	45.170273
9	0xc18843ff	-17.033201
10	0xc20c130c	-35.0186
11	0x42603d01	56.059574
12	0xc195ceca	-18.725971
13	0xbd82a337	-0.06378787
14	0x414cbda8	12.796303
15	0xbf22579d	-0.6341494
16	0x41a6b1c7	20.836805
17	0xc21a1f9c	-38.53087
18	0x412e5cb3	10.897632
19	0x4125bf77	10.359244
20	0xc23804bb	-46.00462
21	0x421e1067	39.516018
22	0xc2115e9c	-36.342392
23	0xc22aad72	-42.66938
24	0x41d3fbac	26.497887
25	0xc1ebd510	-29.479034
26	0xc2274faa	-41.827797
27	0xc0e8a296	-7.269847
28	0x4103c2bd	8.235044
29	0xc1a949fc	-21.161125
30	0x41dbf8cc	27.496483
31	0xc0fa79e6	-7.82738
32	0xc190cd31	-18.100191
33	0xc229a64e	-42.412407
34	0xc217c55b	-37.94273
35	0xc170c470	-15.047958
36	0x4085da77	4.182918
37	0xc06d6cfc	-3.7097769
38	0x41bf6440	23.92395
39	0xc204cbf2	-33.199165
40	0xc194ac20	-18.584045
41	0xbf02a13e	-0.51027286
42	0x422a579e	42.585564
43	0xc2448062	-49.125374
44	0x41bb4247	23.407362
45	0xbffb1fbe	-1.9619062
46	0xc2182fbb	-38.04661
47	0x419ffc9f	19.99835
48	0x420de09e	35.469353
49	0x40806167	4.01189
50	0xc2185949	-38.087193
51	0xc1dd0bdc	-27.63079
52	0x40b8f5f6	5.7800245
53	0x4230b3c7	44.175564
54	0x41c1e17d	24.235102
55	0x40ebdeea	7.370961
56	0x41ccd41d	25.60357
57	0x42022d12	32.544014
58	0xc1a12cd9	-20.146898
59	0x41b87358	23.05632
60	0xbfde3c44	-1.7362142
61	0xc1975058	-18.91423
62	0x41cab36e	25.337612
63	0xc0902fec	-4.50585

fc2.weight f4 [2, 64]
0	0x40ed5a97	7.4173083
1	0xc03a1600	-2.9075928
2	0xbff162ab	-1.8858236
3	0x40a2071d	5.0633683
4	0x4114f7fc	9.310543
5	0x41f9ff1b	31.249563
6	0x40e5fd9a	7.187207
7	0xc0712977	-3.7681558
8	0x40e269b8	7.075405
9	0xc001579e	-2.0209727
10	0xc0637715	-3.5541432
11	0xc226976f	-41.647884
12	0xbfca275c	-1.5793262
13	0xc0419a9b	-3.0250614
14	0x3f78eef4	0.97239614
15	0x3e27602c	0.1634528
16	0x3fd31876	1.649184
17	0xc10ada4f	-8.678298
18	0xc08fbf48	-4.4921
19	0xbfa6c167	-1.3027772
20	0x410578ee	8.342024
21	0x3fe142ac	1.7598472
22	0xc0fd6e99	-7.9197507
23	0xc0a53236	-5.1623793
24	0xc0603102	-3.5029912
25	0x40c54c45	6.1655602
26	0xc145f16a	-12.371439
27	0x40d1b58a	6.5534105
28	0x40b0c9d7	5.5246387
29	0xc0d45229	-6.6350293
30	0x4001cac3	2.0280006
31	0x3e94e6b0	0.2908225
32	0xc073db39	-3.8102553
33	0x413870f4	11.527576
34	0x40a2d304	5.0882587
35	0x409db55c	4.9283886
36	0xc056de11	-3.3573039
37	0xc08ca3a2	-4.3949747
38	0xc0a28455	-5.078654
39	0xc183089b	-16.379202
40	0xc00b6ab1	-2.178387
41	0x3f977961	1.1833917
42	0x40060183	2.0938423
43	0xc121652b	-10.087199
44	0xc044881c	-3.0708075
45	0xc01dae04	-2.463746
46	0xc16d20ae	-14.820478
47	0x4141573c	12.083797
48	0x4117c674	9.48595
49	0x3f925542	1.1432269
50	0xc08a0f6e	-4.3143835
51	0xc0a38eab	-5.1111655
52	0x3e81b849	0.2533591
53	0x415a447a	13.641718
54	0x402e370b	2.7221096
55	0xc01279cb	-2.2886837
56	0x4037b996	2.8707023
57	0x408c1cd4	4.378519
58	0xc10bf1f8	-8.746574
59	0x3eeecb1e	0.4663934
60	0xc03f1eae	-2.9862475
61	0xc0ad7860	-5.420944
62	0x3fc463d3	1.5342964
63	0xbfb33eda	-1.4003556
64	0x41076fa6	8.464758
65	0xc151d3ee	-13.114241
66	0x3f52239b	0.8208558
67	0x40ed2951	7.4112935
68	0x409816ed	4.7527986
69	0x4161fd15	14.124288
70	0x408cd798	4.4013176
71	0xbf1fc8e2	-0.624159
72	0x40e5413f	7.1642146
73	0xc08305f5	-4.094477
74	0xc0758a55	-3.836568
75	0x40237414	2.5539598
76	0xbddc8935	-0.10768358
77	0xc0793b65	-3.8942502
78	0xbe12cd62	-0.1433616
79	0x3fb565cc	1.4171691
80	0xbf88565d	-1.0651356
81	0xc052ce88	-3.2938557
82	0x3f73fe51	0.9530993
83	0xbff95223	-1.9478191
84	0x41046095	8.27358
85	0xc10d2ca3	-8.823398
86	0xc10bb587	-8.731818
87	0x3fa6c6bd	1.30294
88	0xc03d3fd1	-2.95702
89	0x407c0ba6	3.938211
90	0xc114efe9	-9.308572
91	0x408e4f41	4.4471745
92	0x3f956855	1.1672465
93	0x3f39ea39	0.7262302
94	0xbfb3e7be	-1.4055097
95	0x3f528abc	0.8224294
96	0x3f8b6209	1.0889293
97	0x3feacd39	1.8343879
98	0x40e29505	7.080691
99	0xc0c1bcf0	-6.0543137
100	0xbfcadd95	-1.5848871
101	0x3f365309	0.7122045
102	0xbff901df	-1.9453696
103	0xc122085c	-10.127041
104	0x3f92348d	1.1422287
105	0x40027c85	2.03885
106	0xc1342ff4	-11.261707
107	0xc133b662	-11.232027
108	0xbfa5bb5c	-1.2947803
109	0xc093b6a4	-4.616045
110	0xc0a4fecc	-5.156103
111	0x411933be	9.575132
112	0x40ed22be	7.410491
113	0x3e6d8f75	0.23199256
114	0xc00a5cb4	-2.1619081
115	0xbf9157b3	-1.1354889
116	0xbf782753	-0.96935004
117	0x410a325e	8.637297
118	0xbf1de0a1	-0.6167088
119	0xc0c62211	-6.1916585
120	0xbda3348e	-0.079690084
121	0x404c4986	3.1919875
122	0xc09d52e6	-4.9163694
123	0x3c9fe924	0.01952035
124	0xbf227adc	-0.6346872
125	0x3f08923e	0.5334815
126	0xc0822db9	-4.0680814
127	0xc0048e22	-2.071175

fc2.bias f4 [2]
0	0x419e8e72	19.819553
1	0xc0e77ce9	-7.233998
