model_eval.pt (torch, 3535 bytes, 4 tensors)

fc1.weight f4 [64, 4]
000000 5b 8f 48 3f bc 19 4e 3e 86 49 bb bc 25 aa 2d bd
       0.78343743 0.20127004 -0.022862207 -0.04239859
000010 99 f4 62 3f 54 7a 38 be 14 d1 a0 be 64 31 a1 be
       0.88654476 -0.18015414 -0.31409514 -0.31482995
000020 c9 59 72 3f 90 7b c9 bd 43 d9 f9 40 78 0c 90 3f
       0.9466825 -0.09838021 7.807771 1.1253805
000030 e8 91 2a 3f e4 7e 4f 3e 11 a9 70 bf a0 db 2b bc
       0.66628885 0.20263249 -0.94007975 -0.010489374
000040 9d f1 ae 3e 43 7e 88 3e 43 e1 f4 be 31 27 62 3a
       0.3416871 0.2665883 -0.4782811 0.0008627056
000050 2a b6 0b bf 82 16 9f be b8 81 91 3f 80 a0 d1 bd
       -0.54574835 -0.3107186 1.1367712 -0.10235691
000060 97 80 9d bf 83 9a a1 be 61 a0 fb c0 e6 65 6e c0
       -1.2304868 -0.31563196 -7.8633275 -3.7249694
000070 e7 d2 39 bf fc e3 98 bf 8f f4 ec c0 f8 2e 98 bc
       -0.72587436 -1.1944575 -7.4048533 -0.018577084
000080 a3 fa b1 c0 ed a7 51 3f 9f ad 9f 3f 3a 81 0b be
       -5.5618453 0.8189686 1.247486 -0.13623515
000090 68 50 95 bf d4 1c d8 bf 72 86 0d c1 79 31 51 be
       -1.1665163 -1.6883798 -8.845324 -0.20429029
0000a0 4b 9e 04 40 64 17 60 bf 02 09 8a 40 4f 89 72 bd
       2.0721614 -0.8753569 4.3135996 -0.05921298
0000b0 67 44 c4 be dd 21 0b bf 31 0b 2e 40 37 ff 02 be
       -0.38333437 -0.54348546 2.719433 -0.12792669
0000c0 23 1a 57 3f 6c 0b 33 3f a8 15 70 40 7e 11 12 3f
       0.84024256 0.69939303 3.7513218 0.5705794
0000d0 75 e9 91 c0 97 2f c9 3f 9f 51 2b c0 2c b5 84 bf
       -4.559748 1.5717648 -2.6768568 -1.0367789
0000e0 e1 65 80 3f 86 bc 80 bd 3c 42 71 3f 15 fb fd be
       1.0031091 -0.06285958 0.9424169 -0.49605623
0000f0 a6 38 a3 3e 13 46 d1 3e 96 f9 e7 40 0e e5 9b 3c
       0.31879157 0.40873775 7.249217 0.01903012
000100 5c 1d eb 3e 65 e9 d2 bc 4b e7 37 40 f4 99 88 3f
       0.45920837 -0.025746057 2.873492 1.0671983
000110 ee 14 94 be 83 ce 6d 3e e8 dd a3 c0 73 8c a2 bb
       -0.28922218 0.23223309 -5.120838 -0.0049605905
000120 f4 d8 9c c0 6c 18 ae 3f ff 8e a3 be e6 7c 0b bf
       -4.9014835 1.3601203 -0.31945035 -0.54487455
000130 4f fa 1e be 20 56 fd 3e 1d 1f 0c c0 1c 97 82 3f
       -0.15525173 0.4947977 -2.189399 1.0202365
000140 73 a1 29 3f f5 55 81 3e a2 99 2d bf 64 95 8e 3c
       0.66261977 0.25260893 -0.6781255 0.01740522
000150 f4 ab a8 bf f7 e4 0e 3f dc 6e 49 40 7f 90 7d bd
       -1.3177476 0.5581812 3.1473913 -0.06190538
000160 f3 c3 b5 bd 37 fb 83 3d 1e 3d d7 bf 7f 09 0e be
       -0.08875265 0.064444 -1.6815526 -0.1387081
000170 ba 55 0e 40 97 5b c8 3e 95 9f c6 c0 0e a7 f8 be
       2.2239823 0.39132378 -6.20698 -0.48564953
000180 c2 97 ae c0 1c b3 1b c0 f2 06 06 41 bc 7d 08 bd
       -5.456025 -2.432807 8.376696 -0.033323035
000190 0c d8 af 3c f4 50 68 3d e7 9e 31 bf ef 9b a6 bc
       0.021465324 0.056717828 -0.6938309 -0.020338027
0001a0 53 4a 2a bf 0e 3c 14 bf 33 e1 4a c0 a5 1e 3e 3e
       -0.6651966 -0.57904136 -3.169995 0.18566377
0001b0 6c 26 e9 bf 75 ca fb be 41 ec 0c c1 eb 14 0c bf
       -1.821485 -0.491779 -8.807679 -0.5471942
0001c0 15 69 7a c0 35 85 cb bf 65 78 8f 3f 5d c2 8f 3e
       -3.9126637 -1.5900027 1.1208616 0.28077975
0001d0 d7 a0 98 bf 24 97 a2 3e 08 d5 df c0 8a e6 49 c0
       -1.1924084 0.31755936 -6.994755 -3.154696
0001e0 04 11 2a 3f b1 34 03 3f b7 b2 ad 40 96 bb 28 bf
       0.66432214 0.51252276 5.428066 -0.65911233
0001f0 e1 ef a4 3e e9 56 8e 3e c2 ef b7 40 46 34 e6 3e
       0.32214263 0.27800682 5.7480173 0.44961756
000200 0a 2d a7 bf 47 43 54 3f e1 d2 0e c1 24 28 b5 3f
       -1.306062 0.8291516 -8.926484 1.4152875
000210 6e 92 57 3e a7 12 94 3e e6 ab 02 bf 43 9e 17 bc
       0.21051952 0.2892048 -0.51043546 -0.009254041
000220 d7 1b 1f 3f 14 9b 45 3e ac 2a 5f bf c9 7e de bc
       0.62151855 0.19297439 -0.8717449 -0.027160065
000230 9f ac ed bf 7f 10 5f bf a3 82 c2 c0 e6 43 86 bf
       -1.8568305 -0.87134546 -6.078447 -1.0489471
000240 33 a4 7b 3f 32 14 33 3f da 9a 80 40 58 3b ac 3f
       0.98297423 0.6995269 4.018903 1.345561
000250 d3 f6 53 c0 95 f5 a7 3f c9 cd a4 c0 1b 8d 90 bf
       -3.31194 1.3121821 -5.1501203 -1.1293062
000260 90 25 fb 3e b6 90 9d 3d 22 cd f8 40 2e 9b 4f 3d
       0.49052095 0.07693617 7.7750406 0.0506851
000270 ed 9a 1d be 6e 36 47 be 2f d4 44 c0 6d 3b 18 bd
       -0.15391131 -0.19454357 -3.0754507 -0.037166048
000280 d1 35 57 c0 f9 c5 29 3f 8d 2c f7 bd a4 27 60 3f
       -3.3626597 0.6631771 -0.12069044 0.87560487
000290 db 81 db 3f 2d 8b 86 3e fe 4f 8b 3f 70 83 0b bf
       1.7149004 0.26278058 1.0883787 -0.5449743
0002a0 98 30 55 bf 35 0b 07 3f 88 63 41 be cf 7c b8 3d
       -0.83277273 0.52751476 -0.18885624 0.0900818
0002b0 c2 37 99 3e e7 f1 c0 3d fc 6c 05 bf e4 31 90 be
       0.29925352 0.09421139 -0.5211942 -0.28163064
0002c0 ab f3 08 3f ec bc 94 bc 4c b4 c6 40 a1 22 5c 3f
       0.5349681 -0.018156491 6.209509 0.8599034
0002d0 89 3b fc bf 36 7f e8 3e d2 c8 e9 c0 ca 25 ab c0
       -1.9705669 0.45409554 -7.305764 -5.348363
0002e0 2a 8b cf be b7 52 1d bf de a1 40 c0 a4 cc 18 3d
       -0.4053586 -0.6145434 -3.0098796 0.037304536
0002f0 7e 11 a5 bf d0 13 77 bd d5 04 84 c0 1d 43 7f c0
       -1.2895963 -0.06032163 -4.12559 -3.9884713
000300 b2 e4 55 c0 dd 01 a1 3e 1f 83 32 c0 d4 fc 28 bf
       -3.3420835 0.31446734 -2.789253 -0.66010785
000310 b2 97 09 3f 3e 41 6b 3e c5 93 9d 40 c0 1d c5 3f
       0.53747094 0.22974107 4.9242883 1.5399704
000320 1a 96 0d 40 3b cb 97 3f bf 9d e5 c0 04 df b3 bd
       2.2122865 1.1858896 -7.175506 -0.08782771
000330 3d e9 ac bf 5a f8 86 be 0b 21 10 c1 cf 67 fd 3e
       -1.3508679 -0.26361352 -9.008067 0.49493262
000340 44 0c 3c 3f 72 69 df be b3 c1 65 bf c7 71 f7 bf
       0.73456216 -0.43635136 -0.89748687 -1.9331597
000350 7d 5f fb 3e e9 db f0 be 47 4a 20 3f 11 08 0c 3f
       0.4909629 -0.47042778 0.6261334 0.5469981
000360 4c 86 70 3f c0 79 0e be bf e9 17 40 3c fc 1c 3f
       0.9395492 -0.13913631 2.3736417 0.6132238
000370 c9 87 71 c0 c5 b7 df 3f 90 83 ac bf 13 ca ab be
       -3.7739127 1.7477957 -1.347765 -0.33552608
000380 87 fe df 3f eb 66 57 3d bb bd 8e bd 3a 91 3f 3e
       1.749955 0.052588385 -0.06969782 0.18707743
000390 6b c1 28 3e 88 26 73 3e 90 cf a7 40 d7 f8 59 bd
       0.16480033 0.23745167 5.244087 -0.053215828
0003a0 66 04 00 c0 62 0d 04 3e 66 cc 8d c0 5b 12 6e c0
       -2.0002685 0.1289573 -4.431201 -3.7198703
0003b0 e3 16 07 3e 8e 81 8b 3e 50 37 a9 3f b7 88 42 be
       0.13192324 0.2724728 1.3220005 -0.18997465
0003c0 97 2b 02 c0 3c bf 1b 3f 8b 0f 32 c1 2e fc db be
       -2.0339105 0.60838675 -11.128795 -0.42965835
0003d0 ca d2 a0 bf 05 79 44 3b ff a1 24 c1 b1 60 4c bf
       -1.2564328 0.002997936 -10.28955 -0.7983504
0003e0 a6 a2 ba 3e ad 88 ab 3f 6f c0 04 c0 00 58 98 3e
       0.36452216 1.3401085 -2.0742452 0.2975464
0003f0 d4 a7 93 3e f6 bb 87 3f 20 b1 23 c0 a8 36 e7 c0
       0.2883898 1.0604236 -2.5576859 -7.225422

fc1.bias f4 [64]
000000 0a 36 38 c2 59 3a 5d c2 50 e5 11 41 48 ab 20 c2
       -46.052773 -55.30698 9.1184845 -40.167267
000010 71 47 2b c2 19 fa 4e 42 d0 32 9a 41 c4 e1 c5 c1
       -42.819767 51.744236 19.27481 -24.735237
000020 31 b8 34 42 3a 2f 88 c1 a7 10 0c c2 2a 3a 60 42
       45.179874 -17.02306 -35.016262 56.0568
000030 03 d6 95 c1 8b f1 9b bd 39 c3 4c 41 87 49 20 bf
       -18.729498 -0.0761443 12.797662 -0.62612194
000040 ec b0 a6 41 21 26 1a c2 3e 3e 2e 41 92 a3 25 41
       20.836388 -38.537235 10.890196 10.352434
000050 01 05 38 c2 07 08 1e 42 9c 5e 11 c2 8f af 2a c2
       -46.004887 39.50784 -36.342392 -42.671444
000060 4a 05 d4 41 10 d5 eb c1 7e 50 27 c2 3b be e8 c0
       26.502583 -29.479034 -41.828606 -7.2732215
000070 23 c6 03 41 e1 55 a9 c1 9b fd db 41 db 31 fa c0
       8.235873 -21.166933 27.49883 -7.818586
000080 e8 d3 90 c1 43 a4 29 c2 84 c3 17 c2 2f c5 70 c1
       -18.10347 -42.41041 -37.940933 -15.048141
000090 e3 b1 85 40 59 e7 6d c0 b3 61 bf 41 f2 cb 04 c2
       4.1779647 -3.7172453 23.922705 -33.199165
0000a0 62 a8 94 c1 bc 4e 01 bf 50 4d 2a 42 85 81 44 c2
       -18.582218 -0.50510764 42.5755 -49.126484
0000b0 15 34 bb 41 73 1c fc bf bb 2f 18 c2 48 f7 9f 41
       23.40043 -1.9696182 -38.04661 19.995743
0000c0 f9 e7 0d 42 19 82 80 40 e4 5c 18 c2 87 0c dd c1
       35.476536 4.015881 -38.090714 -27.631117
0000d0 1b c1 b8 40 fa b4 30 42 f6 e3 c1 41 66 9f eb 40
       5.7735724 44.176735 24.23631 7.363208
0000e0 18 d9 cc 41 1e 31 02 42 d9 24 a1 c1 3d 79 b8 41
       25.606003 32.547966 -20.142992 23.059198
0000f0 37 ab df bf 8b 4c 97 c1 02 a8 ca 41 37 66 90 c0
       -1.7474126 -18.912374 25.332035 -4.5124774

fc2.weight f4 [2, 64]
000000 90 58 ed 40 d8 fe 39 c0 fa 7d f1 bf ab 08 a2 40
       7.417061 -2.9061794 -1.886657 5.063558
000010 6b fa 14 41 1c 0e fa 41 88 ea e5 40 0b 7d 71 c0
       9.311137 31.25689 7.1848793 -3.773257
000020 33 96 e2 40 6d 11 02 c0 7f 65 63 c0 dd 92 26 c2
       7.080835 -2.0323136 -3.5530698 -41.64342
000030 a1 23 ca bf 3e 24 41 c0 d8 f0 78 3f 9c 2e 26 3e
       -1.5792123 -3.017837 0.972425 0.16228718
000040 ef 41 d3 3f db cc 0a c1 61 92 8f c0 6b 5f a6 bf
       1.6504496 -8.675014 -4.4866185 -1.2997869
000050 2a 79 05 41 8d ff e1 3f 99 6e fd c0 cd 2b a5 c0
       8.342081 1.7656113 -7.9197507 -5.161597
000060 5d 14 60 c0 45 4c c5 40 8a f3 45 c1 f6 bc d1 40
       -3.5012429 6.1655602 -12.371958 6.5543165
000070 32 18 b1 40 e2 48 d4 c0 98 cf 01 40 de 40 94 3e
       5.5342035 -6.633897 2.0282955 0.2895574
000080 02 94 73 c0 09 74 38 41 81 d4 a2 40 79 8e 9d 40
       -3.8059087 11.528329 5.0884404 4.9236417
000090 7b cf 56 c0 e4 62 8c c0 ab 8f a2 c0 9b 08 83 c1
       -3.3564136 -4.3870716 -5.0800376 -16.379202
0000a0 74 26 0b c0 42 80 97 3f c0 54 06 40 74 62 21 c1
       -2.174222 1.1836016 2.0989227 -10.086536
0000b0 77 8c 44 c0 ad 91 1d c0 ae 20 6d c1 b9 52 41 41
       -3.0710733 -2.4620163 -14.820478 12.082696
0000c0 02 d6 17 41 8c 74 92 3f 17 0c 8a c0 05 81 a3 c0
       9.489748 1.1441817 -4.313976 -5.1094995
0000d0 a7 41 82 3e 0f 4f 5a 41 01 38 2e 40 69 03 12 c0
       0.25440714 13.644301 2.7221682 -2.2814581
0000e0 a0 bc 37 40 81 1f 8c 40 20 ef 0b c1 cd 32 ef 3e
       2.8708878 4.3788457 -8.74588 0.46718445
0000f0 d2 d5 3e c0 12 aa ad c0 7a 95 c4 3f 3b 0c b3 bf
       -2.9818006 -5.4270105 1.5358117 -1.3988107
000100 47 64 07 41 71 ec 51 c1 72 2b 52 3f 85 15 ed 40
       8.461982 -13.120225 0.8209754 7.408877
000110 f0 07 98 40 7a 34 62 41 38 e1 8c 40 e7 db 21 bf
       4.750969 14.137812 4.4024925 -0.6322617
000120 5b b9 e5 40 c9 53 83 c0 21 f4 75 c0 70 ce 23 40
       7.1788764 -4.1039777 -3.8430254 2.559475
000130 0b e8 d7 bd 99 6b 78 c0 f7 f7 14 be 18 f1 b5 3f
       -0.105423056 -3.8815672 -0.14547716 1.4214201
000140 da a3 87 bf 5c 12 53 c0 d8 b2 77 3f 5c 54 f7 bf
       -1.0596879 -3.2979956 0.9675727 -1.932262
000150 58 57 04 41 17 f9 0c c1 87 b5 0b c1 25 85 a6 3f
       8.271324 -8.810813 -8.731818 1.3009382
000160 bd f0 3c c0 a6 0b 7c 40 a1 f7 14 c1 93 27 8e 40
       -2.9521935 3.938211 -9.310456 4.442331
000170 25 35 96 3f 36 82 39 3f fc 9d b3 bf 0b a1 53 3f
       1.1734968 0.7246431 -1.4032588 0.8266761
000180 4c bd 8c 3f 9a c3 ea 3f 52 81 e2 40 82 fd c1 c0
       1.0995269 1.8340943 7.078286 -6.062196
000190 82 48 ca bf 18 a3 38 3f a2 bd f8 bf 5c 08 22 c1
       -1.5803378 0.7212386 -1.9432871 -10.127041
0001a0 82 f5 93 3f 56 62 02 40 4d f8 33 c1 23 ca 33 c1
       1.1559298 2.037252 -11.24812 -11.23685
0001b0 42 35 a5 bf 90 a0 93 c0 cc fe a4 c0 94 46 19 41
       -1.2906878 -4.61335 -5.156103 9.579731
0001c0 e3 88 ed 40 7d 64 74 3e c8 60 0a c0 f5 73 90 bf
       7.42296 0.23866458 -2.162157 -1.1285387
0001d0 6c 84 79 bf df 2f 0a 41 40 0e 1e bf eb bb c5 c0
       -0.97467685 8.636687 -0.61740494 -6.179189
0001e0 84 09 a6 bd e3 b9 4c 40 5b 48 9d c0 af f0 d0 3c
       -0.08107284 3.1988456 -4.9150825 0.025505392
0001f0 be aa 20 bf a4 b4 07 3f 85 f2 81 c0 77 45 04 c0
       -0.6276053 0.5301001 -4.0608544 -2.0667398

fc2.bias f4 [2]
000000 08 94 9e 41 84 28 e7 c0
       19.82228 -7.2236958
